…
pretrained_GloVe_model: False
rnn: None
sent_hidden_layer_size: 300
train_embedding: True
vocab_size: 49861
Constructing premise & hypothesis layers .......
Constructing output layer .......
All layers are completely constructed .......

Building model .......

Model: "model_1"
__________________________________________________________________________________________________
Layer (type)                    Output Shape         Param #     Connected to                     
==================================================================================================
input_1 (InputLayer)            (None, 79)           0                                            
__________________________________________________________________________________________________
embedding_1 (Embedding)         (None, 79, 300)      14958300    input_1[0][0]                    
                                                                 input_2[0][0]                    
__________________________________________________________________________________________________
input_2 (InputLayer)            (None, 79)           0                                            
__________________________________________________________________________________________________
time_distributed_1 (TimeDistrib (None, 79, 300)      90300       embedding_1[0][0]                
                                                                 embedding_1[1][0]                
__________________________________________________________________________________________________
lambda_1 (Lambda)               (None, 300)          0           time_distributed_1[0][0]         
                                                                 time_distributed_1[1][0]         
__________________________________________________________________________________________________
batch_normalization_1 (BatchNor (None, 300)          1200        lambda_1[0][0]                   
__________________________________________________________________________________________________
concatenate_1 (Concatenate)     (None, 600)          0           batch_normalization_1[0][0]      
                                                                 lambda_1[1][0]                   
__________________________________________________________________________________________________
dropout_1 (Dropout)             (None, 600)          0           concatenate_1[0][0]              
__________________________________________________________________________________________________
dense_2 (Dense)                 (None, 600)          360600      dropout_1[0][0]                  
__________________________________________________________________________________________________
dropout_2 (Dropout)             (None, 600)          0           dense_2[0][0]                    
__________________________________________________________________________________________________
batch_normalization_3 (BatchNor (None, 600)          2400        dropout_2[0][0]                  
__________________________________________________________________________________________________
dense_3 (Dense)                 (None, 600)          360600      batch_normalization_3[0][0]      
__________________________________________________________________________________________________
dropout_3 (Dropout)             (None, 600)          0           dense_3[0][0]                    
__________________________________________________________________________________________________
batch_normalization_4 (BatchNor (None, 600)          2400        dropout_3[0][0]                  
__________________________________________________________________________________________________
dense_4 (Dense)                 (None, 600)          360600      batch_normalization_4[0][0]      
__________________________________________________________________________________________________
dropout_4 (Dropout)             (None, 600)          0           dense_4[0][0]                    
__________________________________________________________________________________________________
batch_normalization_5 (BatchNor (None, 600)          2400        dropout_4[0][0]                  
__________________________________________________________________________________________________
dense_5 (Dense)                 (None, 3)            1803        batch_normalization_5[0][0]      
==================================================================================================
Total params: 16,140,603
Trainable params: 16,136,403
Non-trainable params: 4,200
__________________________________________________________________________________________________
Start training process .......
Train on 549361 samples, validate on 9842 samples
…
