…
Loading weights from the file .......
Total number of null word embeddings: 12169 

Constructing embedding layer .......
Constructing premise & hypothesis layers .......
Constructing output layer .......
All layers are completely constructed .......

Building model .......

Model: "model_1"
__________________________________________________________________________________________________
Layer (type)                    Output Shape         Param #     Connected to                     
==================================================================================================
input_1 (InputLayer)            (None, 42)           0                                            
__________________________________________________________________________________________________
embedding_1 (Embedding)         (None, 42, 300)      14958300    input_1[0][0]                    
                                                                 input_2[0][0]                    
__________________________________________________________________________________________________
input_2 (InputLayer)            (None, 42)           0                                            
__________________________________________________________________________________________________
time_distributed_1 (TimeDistrib (None, 42, 300)      90300       embedding_1[0][0]                
                                                                 embedding_1[1][0]                
__________________________________________________________________________________________________
gru_1 (GRU)                     (None, 300)          540900      time_distributed_1[0][0]         
                                                                 time_distributed_1[1][0]         
__________________________________________________________________________________________________
batch_normalization_1 (BatchNor (None, 300)          1200        gru_1[0][0]                      
__________________________________________________________________________________________________
concatenate_1 (Concatenate)     (None, 600)          0           batch_normalization_1[0][0]      
                                                                 gru_1[1][0]                      
__________________________________________________________________________________________________
dropout_1 (Dropout)             (None, 600)          0           concatenate_1[0][0]              
__________________________________________________________________________________________________
dense_2 (Dense)                 (None, 600)          360600      dropout_1[0][0]                  
__________________________________________________________________________________________________
dropout_2 (Dropout)             (None, 600)          0           dense_2[0][0]                    
__________________________________________________________________________________________________
batch_normalization_3 (BatchNor (None, 600)          2400        dropout_2[0][0]                  
__________________________________________________________________________________________________
dense_3 (Dense)                 (None, 600)          360600      batch_normalization_3[0][0]      
__________________________________________________________________________________________________
dropout_3 (Dropout)             (None, 600)          0           dense_3[0][0]                    
__________________________________________________________________________________________________
batch_normalization_4 (BatchNor (None, 600)          2400        dropout_3[0][0]                  
__________________________________________________________________________________________________
dense_4 (Dense)                 (None, 600)          360600      batch_normalization_4[0][0]      
__________________________________________________________________________________________________
dropout_4 (Dropout)             (None, 600)          0           dense_4[0][0]                    
__________________________________________________________________________________________________
batch_normalization_5 (BatchNor (None, 600)          2400        dropout_4[0][0]                  
__________________________________________________________________________________________________
dense_5 (Dense)                 (None, 3)            1803        batch_normalization_5[0][0]      
==================================================================================================
Total params: 16,681,503
Trainable params: 1,719,003
Non-trainable params: 14,962,500
__________________________________________________________________________________________________
Start training process .......
Train on 549361 samples, validate on 9842 samples
…
